tensorflowlitetest/tensorflowlitetest/app/src/main/ml/keras_test.tflite (tflite, 3144 bytes, 1 tensors)

std.constant4 f4 [1, 132]
0.25656912 0.23908666 0.25997987 -0.009724907 0.19215678 0.09989833 0.2526759 0.008876938
0.18459527 -0.024041688 -0.011767728 0.20422955 0.251089 0.036245193 0.28714287 0.07366199
-0.046925407 0.15210848 0.112050466 0.31123424 0.09323386 0.19571297 0.15637682 0.2608867
-0.04502962 0.12782674 0.23968892 0.19253047 0.06623726 0.06290482 -0.025007617 0.25712574
0.20618385 -0.08434778 0.035490386 -0.049354043 0.20463322 0.10855818 0.10173363 -0.074927054
0.009691673 0.14661248 0.01234141 0.07839529 -0.07954723 0.12035072 -0.11292308 0.21846767
-0.10527422 0.12415965 0.093978114 0.20066452 0.21498884 0.12725495 0.20431878 -0.052604217
-0.098394245 -0.07496486 0.007268902 0.27380008 0.25619897 0.24721761 -0.09927234 0.2977128
-0.013458009 0.2310565 0.18374449 0.021029191 0.0913271 -0.12771483 -0.0022000677 -0.07756136
-0.04721329 0.20640597 -0.0706775 0.037359595 0.23053701 -0.07840032 0.016891032 0.22052112
-0.08106699 0.17110421 0.006029974 0.018604074 0.099479765 0.07675843 -0.26773366 0.27361295
-0.02524646 0.025718767 -0.1357155 0.24219343 -0.047566876 -0.095783286 0.2452936 -0.023908505
0.26650348 0.16985463 -0.07896982 0.11833872 0.21317738 -0.09866475 0.28431204 0.14997597
0.09454262 0.0556834 -0.0028615047 0.102350645 0.037620712 -0.079011165 0.06914465 0.042470798
0.26611656 -0.048507724 0.18968138 0.120545976 0.017783245 -0.09198107 0.11023864 0.17473201
0.1619008 0.24673507 0.13946785 0.19037533 0.17235924 0.0043119215 0.24724485 0.14958088
-0.073690094 0.014007873 -0.10365378 -0.07963077
00000000: 075d 833e 22d3 743e 151c 853e 3755 1fbc
00000010: bfc4 443e 7f97 cc3d bc5e 813e 9470 113c
00000020: 8b06 3d3e 13f3 c4bc 6ecd 40bc 8d21 513e
00000030: bd8e 803e d775 143d 6404 933e 19dc 963d
00000040: db34 40bd 53c2 1b3e b77a e53d 185a 9f3e
00000050: 65f1 be3d fb68 483e 3f21 203e f192 853e
00000060: fb70 38bd 03e5 023e 0371 753e b526 453e
00000070: 67a7 873d 3ed4 803d c6dc ccbc fca5 833e
00000080: dc21 533e 87be acbd 5e5e 113d 7727 4abd
00000090: 5f8b 513e c053 de3d b959 d03d 5b73 99bd
000000a0: d3c9 1e3c 9521 163e a033 4a3c b68d a03d
000000b0: a8e9 a2bd 707a f63d 3744 e7bd fdb5 5f3e
000000c0: 039a d7bd 6a47 fe3d 9977 c03d 007b 4d3e
000000d0: 0926 5c3e 1f4f 023e f138 513e 8577 57bd
000000e0: ec82 c9bd 2d87 99bd f82f ee3b 862f 8c3e
000000f0: 832c 833e 9d26 7d3e 4c4f cbbd d06d 983e
00000100: fb7e 5cbc 139a 6c3e 8427 3c3e 6945 ac3c
00000110: b409 bb3d adc7 02be 032f 10bb 7ed8 9ebd
00000120: b962 41bd 165c 533e 5dbf 90bd 6006 193d
00000130: e511 6c3e 5990 a0bd 105f 8a3c 4ad0 613e
00000140: 7306 a6bd f135 2f3e 1797 c53b 9267 983c
00000150: 0cbc cb3d 8633 9d3d 6314 89be ff16 8c3e
00000160: aad1 cebc 2ab0 d23c 01f9 0abe 8e01 783e
00000170: 7cd5 42bd 072a c4bd 3f2e 7b3e c5db c3bc
00000180: 2573 883e 5fee 2d3e eeba a1bd 925b f23d
00000190: 2c4b 5a3e bf10 cabd 5991 913e 4d93 193e
000001a0: 909f c13d 4714 643d 1588 3bbb 379d d13d
000001b0: 2d18 1a3d 9bd0 a1bd b69b 8d3d dcf5 2d3d
000001c0: 6e40 883e 09b0 46bd d63b 423e cfe0 f63d
000001d0: 2bae 913c 9260 bcbd ccc4 e13d f3ec 323e
000001e0: 53c9 253e 1ea8 7c3e a9d0 0e3e c0f1 423e
000001f0: f17e 303e 054b 8d3b c12d 7d3e bb2b 193e
00000200: d5ea 96bd 4781 653c 6f48 d4bd 7515 a3bd
